Assets/results/CubeJumper/Agent.onnx (onnx, 112765 bytes, 5 tensors)

action_model._discrete_distribution.branches.0.weight f4 [1, 128]
00000000: 996a 053c 848f c0bb 8062 75bb f0a4 983c
00000010: 8ba6 4e3c 6282 3e3c 074b 9f3c 8f80 7abb
00000020: 289d 2dbc 73d8 50bb aac2 f7bb e2fc 273c
00000030: 932b 0ebc 07e8 aa39 621b 2fbc 33a6 da3a
00000040: 4be6 6dbc d7a0 b6ba 7d15 023c 10b1 053c
00000050: c8b6 d338 3305 2bba e2c2 eaba fab3 03bc
00000060: 68d4 733a 5bf0 f33a e737 59ba b580 4e3b
00000070: 6b3c 2d3b d899 0fb9 70ed b03b 2859 323c
00000080: 6005 b9bc 33ad 403a 9f7e 973c 8764 8f3b
00000090: a229 24bb d357 483c 22f7 373b 3a3d 4bbb
000000a0: 3fa5 5e3b 7e7c 89bb 32cf 76bc 83fa 653b
000000b0: 082b 353c e74c 183c 768c 053b 82b0 69bc
000000c0: 4b2e adbc bd1f 243c b019 57bc 8f51 c53a
000000d0: 3885 863c a90a 8abc 4331 9fbb 2567 143c
000000e0: 7b87 f2bb 025c 48bc dff7 56bc 93f5 833b
000000f0: 1b45 393a 7e6d b6ba 72b5 e5bb 919b 053c
00000100: 7cad a3bb 900e da3b 360c 2dbc f6cc 88bc
00000110: 41ff 34bc 3999 aebb cb4a 9abc fffc 5eb9
00000120: 7faf 293b a472 aabb 8a8b 3cbc 2b97 9ebb
00000130: d3bf c339 2d60 bebb cb4a 1abc 3fac 903c
00000140: 472a b2b8 d5b5 003b edca 53bb 6daf 69bc
00000150: a79b d33b a6ee 213c e553 613b fb93 093c
00000160: ffb8 85bb 1f37 6139 8de8 3bbb fb74 1ebc
00000170: 87bb 9dbc 31f9 19bb 57b8 3cbc 456d e839
00000180: 4b06 46bb 0053 ce3b a545 33bc d799 d23b
00000190: 51e8 84bc bc18 16bc 815e cb3b 41d0 a9bb
000001a0: 7f5d e53a 4b1d 91bc 33f9 e23b 8d5c dcbb
000001b0: 5074 f93b ab96 f73b c40f a33a 20a5 5635
000001c0: f05c 073b f00d 203c 9122 433c 7b9d b43b
000001d0: 2bb4 b6bb a7c2 523b b359 e4bb 9a0a d4bb
000001e0: 6970 c93b 0fde 013b 5bc3 a03b 5a68 a5ba
000001f0: 2812 733c c1fb 3e3c c8a4 8cbb 83bb cb39
0.008143091 -0.0058764834 -0.0037442744 0.018633336 0.012612949 0.011627765 0.019444956 -0.00382236
-0.010596551 -0.0031867295 -0.0075610476 0.010253163 -0.008677381 0.000325978 -0.010687681 0.0016681611
-0.014520238 -0.0013933432 0.0079396935 0.008159891 0.0001009531 -0.0006523907 -0.0017910863 -0.008038515
0.00093013654 0.001861106 -0.0008286223 0.003150982 0.0026433717 -0.00013694854 0.0053993985 0.010885514
-0.02258557 0.00073500274 0.018492995 0.0043759975 -0.002504923 0.01222797 0.0028070887 -0.0031011836
0.0033973006 -0.004195749 -0.015064048 0.0035091944 0.011057623 0.009295679 0.002037791 -0.014263274
-0.021140238 0.010017333 -0.013128683 0.0015054214 0.016420946 -0.016850786 -0.0048581674 0.009057795
-0.0074014044 -0.012228968 -0.0131206205 0.0040270775 0.00070674875 -0.0013918129 -0.0070101554 0.008154766
-0.004995046 0.006654568 -0.010561993 -0.016699295 -0.011047185 -0.005328324 -0.018834492 -0.00021265818
0.0025891957 -0.0052016545 -0.011507878 -0.004839798 0.00037336219 -0.005809805 -0.009417246 0.017660258
-8.495576e-05 0.001963963 -0.0032316998 -0.014263016 0.006457764 0.009883558 0.003438228 0.008397098
-0.004080891 0.00021478206 -0.0028672547 -0.009671445 -0.019254459 -0.0023494477 -0.011518559 0.000443319
-0.0030216153 0.0062965155 -0.0109418975 0.0064270305 -0.016224058 -0.009161171 0.006206334 -0.0051822965
0.0017499177 -0.017714163 0.0069266795 -0.0067249 0.0076127425 0.007555803 0.0012440612 7.99615e-07
0.002065476 0.009768948 0.011910097 0.005511937 -0.005575677 0.003215948 -0.006968701 -0.0064709904
0.0061474335 0.0019816195 0.0049061007 -0.00126196 0.014835872 0.0116567025 -0.0042921044 0.00038858884

network_body._body_endoder.seq_layers.0.bias f4 [128]
00000000: 0000 0000 0000 0000 0000 0000 0000 0000
00000010: 0000 0000 0000 0000 0000 0000 0000 0000
00000020: 0000 0000 0000 0000 0000 0000 0000 0000
00000030: 0000 0000 0000 0000 0000 0000 0000 0000
00000040: 0000 0000 0000 0000 0000 0000 0000 0000
00000050: 0000 0000 0000 0000 0000 0000 0000 0000
00000060: 0000 0000 0000 0000 0000 0000 0000 0000
00000070: 0000 0000 0000 0000 0000 0000 0000 0000
00000080: 0000 0000 0000 0000 0000 0000 0000 0000
00000090: 0000 0000 0000 0000 0000 0000 0000 0000
000000a0: 0000 0000 0000 0000 0000 0000 0000 0000
000000b0: 0000 0000 0000 0000 0000 0000 0000 0000
000000c0: 0000 0000 0000 0000 0000 0000 0000 0000
000000d0: 0000 0000 0000 0000 0000 0000 0000 0000
000000e0: 0000 0000 0000 0000 0000 0000 0000 0000
000000f0: 0000 0000 0000 0000 0000 0000 0000 0000
00000100: 0000 0000 0000 0000 0000 0000 0000 0000
00000110: 0000 0000 0000 0000 0000 0000 0000 0000
00000120: 0000 0000 0000 0000 0000 0000 0000 0000
00000130: 0000 0000 0000 0000 0000 0000 0000 0000
00000140: 0000 0000 0000 0000 0000 0000 0000 0000
00000150: 0000 0000 0000 0000 0000 0000 0000 0000
00000160: 0000 0000 0000 0000 0000 0000 0000 0000
00000170: 0000 0000 0000 0000 0000 0000 0000 0000
00000180: 0000 0000 0000 0000 0000 0000 0000 0000
00000190: 0000 0000 0000 0000 0000 0000 0000 0000
000001a0: 0000 0000 0000 0000 0000 0000 0000 0000
000001b0: 0000 0000 0000 0000 0000 0000 0000 0000
000001c0: 0000 0000 0000 0000 0000 0000 0000 0000
000001d0: 0000 0000 0000 0000 0000 0000 0000 0000
000001e0: 0000 0000 0000 0000 0000 0000 0000 0000
000001f0: 0000 0000 0000 0000 0000 0000 0000 0000
0.0 0.0 0.0 0.0 0.0 0.0 0.0 0.0
0.0 0.0 0.0 0.0 0.0 0.0 0.0 0.0
0.0 0.0 0.0 0.0 0.0 0.0 0.0 0.0
0.0 0.0 0.0 0.0 0.0 0.0 0.0 0.0
0.0 0.0 0.0 0.0 0.0 0.0 0.0 0.0
0.0 0.0 0.0 0.0 0.0 0.0 0.0 0.0
0.0 0.0 0.0 0.0 0.0 0.0 0.0 0.0
0.0 0.0 0.0 0.0 0.0 0.0 0.0 0.0
0.0 0.0 0.0 0.0 0.0 0.0 0.0 0.0
0.0 0.0 0.0 0.0 0.0 0.0 0.0 0.0
0.0 0.0 0.0 0.0 0.0 0.0 0.0 0.0
0.0 0.0 0.0 0.0 0.0 0.0 0.0 0.0
0.0 0.0 0.0 0.0 0.0 0.0 0.0 0.0
0.0 0.0 0.0 0.0 0.0 0.0 0.0 0.0
0.0 0.0 0.0 0.0 0.0 0.0 0.0 0.0
0.0 0.0 0.0 0.0 0.0 0.0 0.0 0.0

network_body._body_endoder.seq_layers.0.weight f4 [128, 85]
00000000: 6373 1abd 5c89 f83d 3182 61be d6fb 193d
00000010: e935 f33d a59f 3abe a3bd d2bd 0d1c 883d
00000020: ed78 063e cc7d 443d a8ea e33d 570f 943d
00000030: e925 b33b f24e 35bd 99bc c13a 8936 0dbe
00000040: 54dc 5cbd 1b41 b73d 1185 013e a05a ef3d
00000050: f3c7 e5bd 208a 9fbd 24d3 873d 1ace 6ebd
00000060: ad63 993d 96f7 b8bc e24a d03d 936d d23c
00000070: f223 55bc 02b5 253c 0fdb 7dbb 15a4 59be
00000080: 025f 8abd 9c2e 26be 8064 1fbe d209 2dbe
00000090: 912c 1e3e 6154 763c 0c33 f4bd 178f 7e3e
000000a0: 5881 4b3d 8678 343d 28c8 cd3d 18df 7c3d
000000b0: 4328 483d 2379 14be 43f9 44be 04c8 0ebe
000000c0: ae68 e4bd dbf4 0abd 3df4 183d 208e f7bd
000000d0: 9134 b43b 9e13 a1be 1c5c d8bc 49f8 443d
000000e0: a299 6b3e 7843 773d 1c6e 4d3d c6bb 063e
000000f0: c744 85be ad1d 9a3d 01f0 cfbd 2b7f 9c3c
00000100: a50a b53c 5cb2 193e 6f04 f23d e75c e3bc
00000110: 6d72 69bb ccac 933d a56a bb3c 2f42 f23d
00000120: 02ec 86be af66 8fbd a836 7b3c a361 883a
00000130: e04a fdbd fe8a 94bd 3345 98bd cc6e 2dbe
00000140: b4a5 78bd 4c59 a2bc 332f 90be 5af7 4cbe
00000150: 0f29 0ebd 1753 763d 6d66 a0bd b127 5ebb
00000160: 55e8 ce3d ecb2 adbc a54a 07bc 2162 34be
00000170: d69c b53c 653a 97bd 662a 85bc d24e f43d
00000180: d758 8b3d 969e a43c 3675 8abd 7c34 be3d
00000190: b47a 2dbe c73b 6dbe acdb 0a3e a3c5 c1bd
000001a0: 494d 703d 2860 a43d ef9f 06be 33d1 ff3c
000001b0: 347e 43be 3200 f63d a411 753d 4db3 94bd
000001c0: dc48 efbd a515 c43c b72b ffbd edf1 fcbc
000001d0: 5c61 e7bd 3937 26be 0a74 2c3d 0e66 41be
000001e0: 6d52 17be b8d0 b03d ac3e 3bbd e446 2a3e
000001f0: 2bc9 943d 4b22 143c dd9e 5bbd df19 82bd
00000200: fc31 59bd 5760 3c3c f07f 49bd b77e f0bd
00000210: 5922 4bbe 1a28 1dbc 2d1f a1bd b764 77bd
00000220: 0c7e 45bd 08ba 123e 6376 f7bd 71fa c23d
00000230: 302e 09be 13fc e1bd 93a4 933d 9dd7 523e
00000240: 934b 743c 2266 49bb 3d71 fd3d fd94 383c
00000250: d33b 00be f56b e83d e976 0c3d 00ac f53d
00000260: 56ca 343e 7296 b03b c9ab f73c 06b1 32bd
00000270: e131 11be 226a 0e3c 79d3 8e3d 427a db3d
00000280: fe24 23be 2127 133e 2cf6 333e c3b4 29be
00000290: 66c9 ed3c 713b a3bd 58b7 233d fc93 833e
000002a0: 9d30 8b3e 592d 4c3c 2cec a33d 337e e6bb
000002b0: cc7a 853d 8198 853d 3e1e e43c cda4 85bb
000002c0: d75b 253b ecb7 debd 49e3 e33d d6ac 33bc
000002d0: 6c2c 0ebe 651f 3e3e 1854 f1bd 767c dfbd
000002e0: a060 443e 6699 143e 19f3 2fbe f622 30be
000002f0: 5d2a d43d 9290 1f3b 0be4 423e 51fd 59be
00000300: 7968 cbbd a0fb 2abe e1ae d93d 09c1 0e3e
00000310: f54e d2bd 9084 d03d cf18 8a3b 4fe9 a3bd
00000320: 04d1 81bd 382f 8bbd bd36 053c 7802 103e
00000330: ee54 d2bd 5034 2bbd e77c 3cbd 7437 93be
00000340: 2f50 b33d 2933 dbbc 6ac4 36be 24f8 b9bd
00000350: 1ea8 503e 1bfb b5bd 5df4 45bd c50e 063d
00000360: cc9a ef3c 0b3f 15be fcfc b3bd df1f 01be
00000370: 2fcd d53b ec88 33bd 87c6 6bbe 6f31 1cbe
00000380: 838f 823d d08b 0bbd 51e4 2abd ebac eb3d
00000390: 5e3e 7abe e694 c7bc 21ef 3abe 44fd 7a3d
000003a0: 9ab9 543d 6e42 16bd a275 e0bb 3730 e43d
000003b0: fd49 29bd 9dfa 1f3c 14f6 b1bd ee4b bf3a
000003c0: 0a1a e0bc ac0f 873d ea52 1b3d 5d29 553e
000003d0: 5021 01be d145 993a c2be 05bd 0710 e83c
000003e0: 27c7 233d 4328 87bd a358 d1bd 0688 933d
000003f0: 5511 acbd 4e71 72bc af1e b23d a616 07be
-0.037707698 0.12135574 -0.2202232 0.037593685 0.11875517 -0.18224962 -0.102900766 0.06645975
0.13132067 0.04797153 0.111287415 0.07229488 0.0054671657 -0.04426474 0.0014780938 -0.13790335
-0.05392106 0.08947965 0.12648417 0.11687207 -0.11219778 -0.07790017 0.06632069 -0.058302023
0.07489715 -0.022578996 0.10170533 0.025687015 -0.013009058 0.010113956 -0.0038735305 -0.21253999
-0.067564026 -0.16228718 -0.15565681 -0.16898277 0.15446688 0.015034766 -0.11923799 0.24859272
0.0496839 0.044060253 0.100479424 0.061736196 0.04886652 -0.14499335 -0.19235711 -0.13943487
-0.111527786 -0.03392492 0.0373423 -0.12087655 0.0054994305 -0.3146028 -0.026411109 0.048088346
0.23007825 0.060367078 0.050153837 0.13157567 -0.26029035 0.075251915 -0.10153199 0.019103607
0.022099802 0.15009445 0.11817252 -0.02775426 -0.0035621182 0.07210693 0.022878 0.1182903
-0.26351935 -0.07002007 0.015332855 0.0010405075 -0.12367797 -0.07253073 -0.07435074 -0.16936797
-0.0607049 -0.01981797 -0.2816101 -0.20016232 -0.034707125 0.060137834 -0.07832036 -0.003389817
0.101029076 -0.02120348 -0.008257543 -0.17615558 0.022169512 -0.07384185 -0.016255569 0.11929096
0.06804054 0.02009515 -0.067606375 0.09287354 -0.16941339 -0.23167334 0.1356036 -0.09461524
0.058667455 0.08026153 -0.13146947 0.031227684 -0.19091111 0.12011756 0.059831277 -0.072607614
-0.11683819 0.023936102 -0.1245951 -0.030877078 -0.11297867 -0.16232003 0.04210285 -0.18886587
-0.14777537 0.0863356 -0.045714065 0.16628605 0.07264932 0.009041379 -0.0536183 -0.06352591
-0.053026184 0.011497579 -0.049194276 -0.11742919 -0.19837321 -0.0095920805 -0.078672744 -0.060398784
-0.04821591 0.14328778 -0.12083127 0.09520424 -0.13396525 -0.110344075 0.072091244 0.20590062
0.014910596 -0.0030731042 0.12375114 0.01126599 -0.12522821 0.11348716 0.03429309 0.11995697
0.1765531 0.005389028 0.03023328 -0.043625854 -0.14179184 0.008692296 0.06973929 0.10716678
-0.1593208 0.14370395 0.17574376 -0.16572861 0.029026698 -0.07970322 0.039969772 0.2569884
0.27185526 0.012461984 0.080040306 -0.007034087 0.06517562 0.065232284 0.027846452 -0.0040784837
0.0025231743 -0.10874924 0.111273356 -0.0109665 -0.13884133 0.18566664 -0.11783618 -0.10912411
0.19177485 0.14511642 -0.17182578 -0.17200837 0.10359643 0.0024347645 0.19032304 -0.21288039
-0.09932036 -0.1669755 0.10629059 0.13940825 -0.10268966 0.10181534 0.004214383 -0.080034845
-0.06338695 -0.06796116 0.008130726 0.14063442 -0.10270105 -0.041797936 -0.046017554 -0.28753245
0.08755528 -0.026757794 -0.17848364 -0.09080532 0.20376632 -0.08885785 -0.048328746 0.03272893
0.029248618 -0.1457483 -0.08788487 -0.12609814 0.006524704 -0.04383175 -0.23024951 -0.15253232
0.06375029 -0.034068882 -0.041721646 0.11507591 -0.24437854 -0.024362992 -0.18255283 0.06127669
0.051934816 -0.036684446 -0.0068499604 0.11142009 -0.041330326 0.009764341 -0.08689514 0.0014594772
-0.027356166 0.06594786 0.03792087 0.2081656 -0.12610364 0.001169378 -0.032652624 0.028327955
0.03998485 -0.06599476 -0.10221984 0.07203679 -0.08401743 -0.014797522 0.08697259 -0.13192233

network_body._body_endoder.seq_layers.2.bias f4 [128]
00000000: 0000 0000 0000 0000 0000 0000 0000 0000
00000010: 0000 0000 0000 0000 0000 0000 0000 0000
00000020: 0000 0000 0000 0000 0000 0000 0000 0000
00000030: 0000 0000 0000 0000 0000 0000 0000 0000
00000040: 0000 0000 0000 0000 0000 0000 0000 0000
00000050: 0000 0000 0000 0000 0000 0000 0000 0000
00000060: 0000 0000 0000 0000 0000 0000 0000 0000
00000070: 0000 0000 0000 0000 0000 0000 0000 0000
00000080: 0000 0000 0000 0000 0000 0000 0000 0000
00000090: 0000 0000 0000 0000 0000 0000 0000 0000
000000a0: 0000 0000 0000 0000 0000 0000 0000 0000
000000b0: 0000 0000 0000 0000 0000 0000 0000 0000
000000c0: 0000 0000 0000 0000 0000 0000 0000 0000
000000d0: 0000 0000 0000 0000 0000 0000 0000 0000
000000e0: 0000 0000 0000 0000 0000 0000 0000 0000
000000f0: 0000 0000 0000 0000 0000 0000 0000 0000
00000100: 0000 0000 0000 0000 0000 0000 0000 0000
00000110: 0000 0000 0000 0000 0000 0000 0000 0000
00000120: 0000 0000 0000 0000 0000 0000 0000 0000
00000130: 0000 0000 0000 0000 0000 0000 0000 0000
00000140: 0000 0000 0000 0000 0000 0000 0000 0000
00000150: 0000 0000 0000 0000 0000 0000 0000 0000
00000160: 0000 0000 0000 0000 0000 0000 0000 0000
00000170: 0000 0000 0000 0000 0000 0000 0000 0000
00000180: 0000 0000 0000 0000 0000 0000 0000 0000
00000190: 0000 0000 0000 0000 0000 0000 0000 0000
000001a0: 0000 0000 0000 0000 0000 0000 0000 0000
000001b0: 0000 0000 0000 0000 0000 0000 0000 0000
000001c0: 0000 0000 0000 0000 0000 0000 0000 0000
000001d0: 0000 0000 0000 0000 0000 0000 0000 0000
000001e0: 0000 0000 0000 0000 0000 0000 0000 0000
000001f0: 0000 0000 0000 0000 0000 0000 0000 0000
0.0 0.0 0.0 0.0 0.0 0.0 0.0 0.0
0.0 0.0 0.0 0.0 0.0 0.0 0.0 0.0
0.0 0.0 0.0 0.0 0.0 0.0 0.0 0.0
0.0 0.0 0.0 0.0 0.0 0.0 0.0 0.0
0.0 0.0 0.0 0.0 0.0 0.0 0.0 0.0
0.0 0.0 0.0 0.0 0.0 0.0 0.0 0.0
0.0 0.0 0.0 0.0 0.0 0.0 0.0 0.0
0.0 0.0 0.0 0.0 0.0 0.0 0.0 0.0
0.0 0.0 0.0 0.0 0.0 0.0 0.0 0.0
0.0 0.0 0.0 0.0 0.0 0.0 0.0 0.0
0.0 0.0 0.0 0.0 0.0 0.0 0.0 0.0
0.0 0.0 0.0 0.0 0.0 0.0 0.0 0.0
0.0 0.0 0.0 0.0 0.0 0.0 0.0 0.0
0.0 0.0 0.0 0.0 0.0 0.0 0.0 0.0
0.0 0.0 0.0 0.0 0.0 0.0 0.0 0.0
0.0 0.0 0.0 0.0 0.0 0.0 0.0 0.0

network_body._body_endoder.seq_layers.2.weight f4 [128, 128]
00000000: 3d2f 51bd 6294 0b3d 1de5 263c d00a c2bc
00000010: 5c43 b13c 17ee 083e d7a8 963d 50db 98bd
00000020: 8b85 913c 0ae4 e73d c54b d53d d485 09be
00000030: a5d4 4dbc 5685 1abd 11e8 2b3d 6754 3abc
00000040: f2e3 7abd 9b01 173d f7a5 61bd d045 25bc
00000050: 121d 38bd c677 ce3c 74f7 42be 60a0 a5bd
00000060: b939 363d e3b1 b2bb 76a3 bd3d 7460 1bbe
00000070: b7d7 dcbd 10db 2c3c b4e1 353d dbec 933d
00000080: d8a7 8dbc 8b15 b6bd 6a3a 103e 3471 ed3d
00000090: c843 2f3d f9fa 1abe ec85 b2bd 855a 09be
000000a0: 2a1f f8bc 6f68 21be 58ad 59be 03ce 653e
000000b0: 7a78 7bbd b528 c23d 5c9a f4bd 45b7 093e
000000c0: 3ea1 cb3c b387 54bd 061e 91bc d92b 9ebd
000000d0: 91b2 dc3c 287b f43d a4e6 95bd 1a09 5dbd
000000e0: 6d4e 95bc d684 02bd 9c7a 03be 82b1 ed3d
000000f0: c6e3 11bd 40ee 6bbd ee6c 61bc 71a3 8ebc
00000100: 15ef 823b 884a 3d3e 1c2c e6bc 949b 7ebc
00000110: 7a19 193d cc38 babd d291 76bd e334 573c
00000120: 2103 573b d398 fd3d 97ef c3bd dfb1 9dbd
00000130: de8a 673e 90a7 2fbe 2a04 a3bd 3890 383d
00000140: 81e5 5439 bac3 033e ca22 423d eb51 603d
00000150: c3fc 713e 6d53 733d 4c8f 93bd 119e a63c
00000160: 95a3 193e 6a70 8d3c bb65 ce3d 7984 b33c
00000170: 49f6 86bc 9515 c3bd 612f 85bd 68fe 5abd
00000180: a4d5 1bbe 5862 8a3c 1f88 823d c06d 30bd
00000190: c254 43be f8bd a33b 3c03 13be e1f8 cebc
000001a0: d9ea 78bd c44b a93d b61f df3d de08 40be
000001b0: 4688 aebd f462 0ebe d029 2b3d 1ed8 313e
000001c0: e34c 923d cd86 e4bd 79ce 183e d183 99bc
000001d0: 40a9 08bc 5b8a 043e ff42 a43d 6155 2d3d
000001e0: 3dd0 89bd f5e4 aa3d 1018 ccbd c179 44be
000001f0: 346d 9c3b 8d34 19bd 9354 1bbe 9c42 fd3c
00000200: b262 02bd efe6 43bd 6e6e e33c b19d f5bd
00000210: 0afd ca3d 1014 893c 1f09 5b3d 911c b4bd
00000220: 22d5 97bd b3b3 2bbe 64bc 193e 8ff8 05be
00000230: 4105 3f3d 8184 953d 0021 a23d 97f0 59bd
00000240: 864b 283d f63f fdbd 549d 8a3d 2f9d a43c
00000250: ea91 55bd d50f 643d b6bb 05be 9554 1e3d
00000260: d264 d13d 6ba3 353e 584b d93c 1148 883e
00000270: 1d12 003d f2ea 3dbd 890e bcbd a808 ecbc
00000280: 8a92 033e 6211 0a3b bed4 6cbd e2b2 86bd
00000290: 2d1e 56bd b556 8bbd 36b7 18bd 0e19 7b3c
000002a0: 3ce5 efbd 5b88 623d 31a6 09be 6631 4ebd
000002b0: 56de 32bd 3bf0 923d 5ab1 153e f1cb 3a3c
000002c0: 8a36 173d f42e 55bd 7424 6f3e e22b 59bc
000002d0: 5152 8dbd 6cc1 863b f237 cf3b 4eb2 a9bd
000002e0: 4f7a 02be bdfe 7a3d cd97 0fbe 6d03 263d
000002f0: 6bc5 e3bd 28fc 013e f762 33bd 14d3 bebd
00000300: 830c 30be 2153 0d3e 4ed7 8bbd 8ff7 d93d
00000310: 0616 04bd 3793 7f3c 7f2b 6e3d d786 02bb
00000320: 5631 e93d 8357 06bd 7990 3b3e 6635 a33c
00000330: 8126 87bc 8a19 503d 74df 30b9 de84 79bd
00000340: bf98 953d c012 d0bc 1518 eb3d 90f5 94bd
00000350: fe07 2d3d 1916 c7bd 38b8 3cbe 2f8f f9bc
00000360: c8d7 913d 36aa 273e 0287 9ebd 49a3 9a3d
00000370: fed3 093e ea14 8abc 4da6 c3bd 4fa1 2b3d
00000380: db49 793d 4898 333c 971c 4c3d dac2 a4bd
00000390: 9855 e6bc 5fa9 003d b405 503d 10bf 013d
000003a0: 809e d43d 9424 8b3d 8a19 c9bc 7dcf 42bd
000003b0: cc0e f83d f4bd 683b 5654 13be f516 4bbe
000003c0: 5917 86bd fbdc c5bd 45c8 d9bd ebf5 253c
000003d0: d93b bdbc c890 98bd 3622 883c 26cc 353d
000003e0: ee49 aebc aec4 2abd 5d39 c8bd d164 de3c
000003f0: 7986 a93d f4b1 a13c 5463 b7bd dffc fd3c
-0.05107044 0.034077056 0.010186461 -0.023686796 0.021638565 0.13372074 0.073564224 -0.074637055
0.017763874 0.11322792 0.104148425 -0.13429958 -0.012562905 -0.037724815 0.041969363 -0.011372662
-0.06125254 0.036866765 -0.055089917 -0.010087445 -0.0449496 0.025203597 -0.19039708 -0.0808723
0.044488642 -0.0054533347 0.09259693 -0.15173513 -0.10783332 0.010550275 0.0444047 0.07222911
-0.017291948 -0.08890828 0.14084783 0.115938574 0.04278925 -0.15134801 -0.0871695 -0.13413437
-0.030288298 -0.15762495 -0.21257532 0.22441868 -0.061394192 0.094804205 -0.11943504 0.13448818
0.02485716 -0.051887225 -0.017714512 -0.07723207 0.026940616 0.11937553 -0.07319382 -0.053963758
-0.018225873 -0.031864963 -0.1283974 0.116061226 -0.035617612 -0.05760026 -0.013758881 -0.01741192
0.003995786 0.18485463 -0.028097205 -0.015540022 0.037377812 -0.090928644 -0.06019766 0.013135168
0.0032808261 0.123826645 -0.095671825 -0.07699942 0.22611567 -0.17153764 -0.079597786 0.045059413
0.00020303392 0.12867633 0.04739646 0.054765623 0.23631577 0.059405733 -0.07205066 0.020339044
0.15003808 0.017265517 0.10077997 0.021913754 -0.01647486 -0.09525601 -0.065031774 -0.053465277
-0.15218216 0.016892597 0.06373619 -0.043073416 -0.19075301 0.0049970113 -0.14356703 -0.02526516
-0.060770843 0.08266404 0.1089472 -0.18753383 -0.08522086 -0.13904935 0.041787922 0.17367598
0.07143571 -0.11158524 0.14922513 -0.018739613 -0.008341134 0.12943403 0.08020591 0.04231775
-0.067291714 0.08344451 -0.09965527 -0.1918707 0.00477376 -0.037403632 -0.15168981 0.03091555
-0.031832404 -0.047827657 0.027762618 -0.11992968 0.099115446 0.0167332 0.053475495 -0.08794511
-0.07413699 -0.16767769 0.15013272 -0.13083099 0.04663587 0.07300664 0.079164505 -0.05320796
0.04108765 -0.12365715 0.06768289 0.020094482 -0.052141108 0.05567916 -0.13059887 0.038654882
0.10224308 0.1773812 0.026525185 0.26617482 0.031267274 -0.04636664 -0.0918246 -0.028812721
0.12848869 0.002106749 -0.057820074 -0.06577088 -0.05227487 -0.068036474 -0.0372841 0.015325798
-0.11713645 0.05530582 -0.13442303 -0.05034008 -0.043669067 0.071747266 0.14618436 0.0114011625
0.036917247 -0.05204673 0.2335375 -0.013255091 -0.06900466 0.004112413 0.006323808 -0.08285962
-0.1274197 0.061278094 -0.14022751 0.04053061 -0.11121639 0.12693846 -0.043795552 -0.09317604
-0.17192273 0.13801242 -0.068281755 0.10642921 -0.032247566 0.015599064 0.05814695 -0.0019916797
0.11386363 -0.0327983 0.1831683 0.019922923 -0.016497852 0.050805606 -0.00016867911 -0.060917728
0.07304525 -0.025399566 0.11479203 -0.072734 0.04224395 -0.09721012 -0.18429649 -0.030463783
0.07121235 0.16373524 -0.077405944 0.075506754 0.13459775 -0.016855676 -0.09553204 0.041901883
0.06086145 0.0109616 0.049831953 -0.080449775 -0.028116986 0.031411525 0.05078669 0.031676352
0.10381794 0.06794086 -0.02454831 -0.047561157 0.12112197 0.0035513612 -0.1438764 -0.19832976
-0.06547422 -0.09661289 -0.106339015 0.010129432 -0.023099827 -0.0744949 0.016617876 0.044384144
-0.021275487 -0.041691475 -0.09776566 0.027147682 0.08277602 0.019738175 -0.08954492 0.031004367
