Assets/results/Try/Agent.onnx (onnx, 112606 bytes, 5 tensors)

action_model._continuous_distribution.mu.weight f4 [1, 128]
0.0031532522 0.045528654 0.00025705542 0.004651224 -0.012967682 -0.022099083 0.008306246 -0.008670827
0.014572899 0.0048022564 0.025062883 0.0003003727 0.0020460289 -0.020069038 0.0018811692 0.014687622
0.024112409 -0.007029799 0.01496695 -0.0013117198 0.011722202 -0.002343976 -0.023977607 -0.042190243
-0.00894039 -0.015581824 -0.015651112 0.01607321 -0.005264913 -0.025725543 0.014955686 -0.002388084
-0.0005788998 -0.0061271987 0.00025394294 -0.006052047 0.026783613 0.0021701874 -0.00026908854 -0.012588458
-0.0043037226 -0.0284992 0.008986303 0.03382557 -0.00071323756 -0.007134523 -0.0060152775 -0.017467951
-0.04227863 0.00856129 0.0074996725 0.027293721 0.014583588 0.014099675 0.04841241 0.022068692
-0.013264119 -0.014516236 0.005968683 0.03960602 0.008376344 -0.0048965076 0.06214557 0.011178018
0.010078033 -0.016656024 -0.003343025 -0.035422307 0.013402331 -0.024758002 0.014887645 -0.03636625
-0.0041271597 -0.02974316 -0.0178821 -0.010935111 -0.025481666 0.010656889 0.014772119 -0.019474056
-0.030550865 -0.0112743 0.017405761 0.022079425 0.01975663 -0.020038467 -0.0041154353 0.011435273
-0.0030941505 0.0038039738 -0.012037563 0.008513879 0.034676116 -0.03139285 0.013546141 0.035079595
0.028872225 -0.012939225 0.017076783 -0.010444303 -0.012321069 -0.009585175 -0.022395952 0.018846896
0.020612892 -0.009047984 -0.0047991276 0.019638782 -0.0034241024 0.02346103 -0.013940874 0.004895128
0.0045538684 0.0039783847 0.007448689 -0.021549415 0.0219406 -0.015550899 -0.0018663099 0.016028704
-0.0050739297 -0.012932534 0.012365045 0.024335824 -0.014793006 0.025174687 0.012787824 0.015094188
00000000: cba6 4e3b 417c 3a3d 65c5 8639 4b69 983b
00000010: 6776 54bc 2309 b5bc ec16 083c 1610 0ebc
00000020: 2bc3 6e3c 3f5c 9d3b ad50 cd3c 577b 9d39
00000030: ab16 063b d367 a4bc 9091 f63a 5aa4 703c
00000040: 6387 c53c 3a5a e6bb f037 753c 03ee abba
00000050: 7b0e 403c 649d 19bb b06c c4bc adcf 2cbd
00000060: b77a 12bc e84a 7fbc c336 80bc f7ab 833c
00000070: 4b85 acbb 60be d2bc b208 753c 6781 1cbb
00000080: 4fc1 17ba abc6 c8bb a523 8539 4050 c6bb
00000090: 4f69 db3c b439 0e3b 7414 8db9 d23f 4ebc
000000a0: 3e06 8dbb 2777 e9bc 493b 133c ae8c 0a3d
000000b0: 90f8 3aba b7c8 e9bb ce1b c5bb f318 8fbc
000000c0: 5b2c 2dbd a744 0c3c d0bf f53b 1597 df3c
000000d0: 00f0 6e3c 5302 673c 174c 463d 67c9 b43c
000000e0: bf51 59bc 82d5 6dbc f194 c33b ec39 223d
000000f0: ef3c 093c e272 a0bb 5a8c 7e3d 0124 373c
00000100: 561e 253c 3772 88bc a716 5bbb fb16 11bd
00000110: 7395 5b3c 4bd1 cabc 4feb 733c c7f4 14bd
00000120: 203d 87bb eda7 f3bc 7b7d 92bc 2e29 33bc
00000130: edbe d0bc 3b9a 2e3c c206 723c 0e88 9fbc
00000140: cf45 fabc d7b7 38bc 8796 8e3c e9df b43c
00000150: a8d8 a13c b627 a4bc c6da 86bb 035b 3b3c
00000160: 3bc7 4abb 174c 793b 3339 45bc cc7d 0b3c
00000170: 8b08 0e3d ca95 00bd a2f0 5d3c 9faf 0f3d
00000180: 7285 ec3c 0bff 53bc 9ce4 8b3c 951e 2bbc
00000190: 4fde 49bc 230b 1dbc b777 b7bc ce64 9a3c
000001a0: 5edc a83c ff3d 14bc 0042 9dbb 83e1 a03c
000001b0: e866 60bb 5931 c03c 4368 64bc 4f67 a03b
000001c0: 9e38 953b 1c5d 823b 2214 f43b 6688 b0bc
000001d0: c6bc b33c 33c9 7ebc f89e f4ba a14e 833c
000001e0: 3543 a6bb fbe2 53bc c296 4a3c ec5b c73c
000001f0: 5d5e 72bc 253b ce3c 0584 513c 9d4d 773c

network_body._body_endoder.seq_layers.0.bias f4 [128]
0.0 0.0 0.0 0.0 0.0 0.0 0.0 0.0
0.0 0.0 0.0 0.0 0.0 0.0 0.0 0.0
0.0 0.0 0.0 0.0 0.0 0.0 0.0 0.0
0.0 0.0 0.0 0.0 0.0 0.0 0.0 0.0
0.0 0.0 0.0 0.0 0.0 0.0 0.0 0.0
0.0 0.0 0.0 0.0 0.0 0.0 0.0 0.0
0.0 0.0 0.0 0.0 0.0 0.0 0.0 0.0
0.0 0.0 0.0 0.0 0.0 0.0 0.0 0.0
0.0 0.0 0.0 0.0 0.0 0.0 0.0 0.0
0.0 0.0 0.0 0.0 0.0 0.0 0.0 0.0
0.0 0.0 0.0 0.0 0.0 0.0 0.0 0.0
0.0 0.0 0.0 0.0 0.0 0.0 0.0 0.0
0.0 0.0 0.0 0.0 0.0 0.0 0.0 0.0
0.0 0.0 0.0 0.0 0.0 0.0 0.0 0.0
0.0 0.0 0.0 0.0 0.0 0.0 0.0 0.0
0.0 0.0 0.0 0.0 0.0 0.0 0.0 0.0
00000000: 0000 0000 0000 0000 0000 0000 0000 0000
00000010: 0000 0000 0000 0000 0000 0000 0000 0000
00000020: 0000 0000 0000 0000 0000 0000 0000 0000
00000030: 0000 0000 0000 0000 0000 0000 0000 0000
00000040: 0000 0000 0000 0000 0000 0000 0000 0000
00000050: 0000 0000 0000 0000 0000 0000 0000 0000
00000060: 0000 0000 0000 0000 0000 0000 0000 0000
00000070: 0000 0000 0000 0000 0000 0000 0000 0000
00000080: 0000 0000 0000 0000 0000 0000 0000 0000
00000090: 0000 0000 0000 0000 0000 0000 0000 0000
000000a0: 0000 0000 0000 0000 0000 0000 0000 0000
000000b0: 0000 0000 0000 0000 0000 0000 0000 0000
000000c0: 0000 0000 0000 0000 0000 0000 0000 0000
000000d0: 0000 0000 0000 0000 0000 0000 0000 0000
000000e0: 0000 0000 0000 0000 0000 0000 0000 0000
000000f0: 0000 0000 0000 0000 0000 0000 0000 0000
00000100: 0000 0000 0000 0000 0000 0000 0000 0000
00000110: 0000 0000 0000 0000 0000 0000 0000 0000
00000120: 0000 0000 0000 0000 0000 0000 0000 0000
00000130: 0000 0000 0000 0000 0000 0000 0000 0000
00000140: 0000 0000 0000 0000 0000 0000 0000 0000
00000150: 0000 0000 0000 0000 0000 0000 0000 0000
00000160: 0000 0000 0000 0000 0000 0000 0000 0000
00000170: 0000 0000 0000 0000 0000 0000 0000 0000
00000180: 0000 0000 0000 0000 0000 0000 0000 0000
00000190: 0000 0000 0000 0000 0000 0000 0000 0000
000001a0: 0000 0000 0000 0000 0000 0000 0000 0000
000001b0: 0000 0000 0000 0000 0000 0000 0000 0000
000001c0: 0000 0000 0000 0000 0000 0000 0000 0000
000001d0: 0000 0000 0000 0000 0000 0000 0000 0000
000001e0: 0000 0000 0000 0000 0000 0000 0000 0000
000001f0: 0000 0000 0000 0000 0000 0000 0000 0000

network_body._body_endoder.seq_layers.0.weight f4 [128, 85]
-0.022091324 -0.15537529 0.0034326005 -0.046282943 0.10606191 -0.08319581 -0.16364545 0.012288547
-0.07707976 -0.0113998875 -0.09437609 0.23339592 -0.18236688 0.02439459 0.113378555 -0.16212623
-0.0112700965 0.023978557 0.029437255 0.12138881 -0.12602058 0.064312644 0.02680813 0.018578622
0.1532212 0.13107221 -0.17006396 0.104124814 0.054770067 -0.020269066 -0.118646406 0.057101473
0.14955524 0.30455354 -0.02103449 -0.19607815 -0.007453251 -0.0075279563 0.12198069 -0.15599684
0.0725023 -0.0035078675 0.011027266 0.0034809548 -0.0003740399 -0.0146622555 -0.040598445 0.026815455
0.056864645 -0.01949348 -0.021949654 0.2147166 -0.16207309 0.018701222 0.10753329 0.022594646
-0.0546587 0.03779513 0.13103831 -0.012602832 0.088643655 0.06334339 0.15115514 0.0934596
0.0038891973 0.110093415 0.0875307 -0.10175947 0.010639671 -0.0019095618 0.008064269 0.07111759
-0.023295395 0.35821924 -0.094618954 -0.104116976 0.16812575 0.16227609 -0.010944502 0.030101785
-0.081272185 -0.19363473 0.1060157 -0.06007646 0.04975679 -0.16582347 0.16493645 0.13014714
-0.12997833 0.041299526 0.08520934 0.026247606 -0.2011447 0.009055543 0.03849825 -0.15829794
-0.23393774 0.04675891 0.017479783 0.10398451 0.28032303 -0.10198199 0.023927843 0.022263693
0.07062304 0.03699684 -0.13961008 -0.14974591 0.025329676 0.14467746 0.16160692 -0.07380242
0.02595286 0.14138483 0.14361781 -0.052670393 -0.07006787 0.0021575103 -0.044148598 0.10515474
-0.29994872 -0.09536246 -0.12017802 0.25309017 0.07270841 -0.034210484 0.16570236 0.053251036
-0.022724217 -0.12330711 0.20614581 -0.13789323 0.27353463 -0.08767051 0.13878979 -0.010510018
0.10091246 -0.053459726 0.09804133 -0.15964909 -0.13177022 -0.025921796 0.05995228 0.07336323
-0.08615257 -0.19506268 -0.031395964 -0.090753615 0.050025847 0.037631687 -0.016473187 -0.035100162
-0.10243858 -0.11624008 -0.19613445 -0.11103059 -0.26000354 -0.007774026 -0.08021539 -0.14988633
0.051271014 -0.104107134 -0.097910285 0.13201578 0.042828668 -0.037636098 0.11310432 0.09854472
0.187013 -0.08368146 0.21569496 0.16203153 0.13323367 -0.06118612 0.027751463 0.0056728763
0.13720715 -0.010108721 0.07468482 0.18598354 0.19106907 -0.082626924 0.08745321 -0.14688112
0.11323912 0.11865457 0.078127526 -0.03149186 -0.20551492 -0.10861156 0.07498151 -0.09178593
-0.07482164 -0.006369085 -0.16793604 0.11547422 0.02198211 0.016603349 0.082350865 0.17635898
0.16604832 -0.05109691 -0.003602493 -0.044843 -0.06498084 -0.067374624 0.10650673 0.107509814
0.052649528 -0.088106275 0.13051224 0.09095014 0.0859318 0.0436775 0.0021783307 -0.011619248
0.1166923 0.10922733 -0.071115434 0.08183141 -0.035157222 -0.089101724 0.011793866 0.19106631
-0.015480804 -0.076005 0.078133635 0.10403619 0.06776645 0.13700233 0.015282908 -0.13722946
-0.06242063 -0.16301008 0.114345774 0.10370331 -0.08569006 -0.022553245 -0.059722766 -0.017757881
0.018888311 0.08098967 0.013687293 -0.116739415 -0.09898709 0.04670672 0.034115817 0.12437134
-4.1935185e-05 0.104889564 0.04249516 0.031685192 0.013627349 -0.008278126 0.019550422 -0.1067171
00000000: ddf8 b4bc b31a 1fbe 7bf5 603b 2f93 3dbd
00000010: fd36 d93d 9162 aabd ac92 27be e755 493c
00000020: fedb 9dbd 98c6 3abc 4048 c1bd 57ff 6e3e
00000030: 62be 3abe 2ad7 c73c 0433 e83d 6b04 26be
00000040: 36a6 38bc ae6e c43c 6626 f13c b29a f83d
00000050: 8a0b 01be 59b6 833d b99c db3c 3232 983c
00000060: 05e6 1c3e cb37 063e 3f25 2ebe 643f d53d
00000070: 9456 603d 500b a6bc e3fc f2bd 3ce3 693d
00000080: 0225 193e 71ee 9b3e 8650 acbc b6c8 48be
00000090: 673a f4bb 13ad f6bb 03d1 f93d a3bd 1fbe
000000a0: 167c 943d 40e4 65bb b5ab 343c bb20 643b
000000b0: c91a c4b9 f539 70bc 8e4a 26bd 16ac db3c
000000c0: e7ea 683d cab0 9fbc c3cf b3bc abde 5b3e
000000d0: 7df6 25be 4e33 993c 6a3a dc3d 6818 b93c
000000e0: cde1 5fbd 11cf 1a3d e82e 063e 1c7c 4ebc
000000f0: ce8a b53d 2eba 813d 6ac8 1a3e bf67 bf3d
00000100: e7e1 7e3b a878 e13d 4c43 b33d 4567 d0bd
00000110: 0452 2e3c 434a faba ff1f 043c 19a6 913d
00000120: fcd5 bebc 8368 b73e 95c7 c1bd 483b d5bd
00000130: 2829 2c3e b42b 263e 9250 33bc 0598 f63c
00000140: 0872 a6bd 2f48 46be c21e d93d bc12 76bd
00000150: c7cd 4b3d a1cd 29be 1ae5 283e 4b45 053e
00000160: 0a19 05be b129 293d 3c82 ae3d 3805 d73c
00000170: e0f8 4dbe b35d 143c 57b0 1d3d db18 22be
00000180: 608d 6fbe 4586 3f3d c331 8f3c d5f5 d43d
00000190: 8086 8f3e efdb d0bd 5304 c43c 5962 b63c
000001a0: d0a2 903d 008a 173d f2f5 0ebe fe56 19be
000001b0: 2e80 cf3c 5426 143e 497c 253e b925 97bd
000001c0: 189b d43c 2fc7 103e 8c10 133e e9bc 57bd
000001d0: be7f 8fbd 0465 0d3b 29d5 34bd 5e5b d73d
000001e0: e192 99be 654d c3bd e51f f6bd 0995 813e
000001f0: 26e8 943d 4b20 0cbd e1ad 293e c21d 5a3d
00000200: 2328 babc 7088 fcbd e317 533e e233 0dbe
00000210: bb0c 8c3e 998c b3bd e91e 0e3e 3632 2cbc
00000220: 31ab ce3d 96f8 5abd e5c9 c83d 0d7b 23be
00000230: c6ee 06be f259 d4bc 8690 753d 763f 963d
00000240: c270 b0bd 83be 47be 0e99 00bd 08dd b9bd
00000250: e7e7 4c3d af23 1a3d c7f2 86bc 30c5 0fbd
00000260: 51cb d1bd 470f eebd 78d7 48be 0264 e3bd
00000270: 2f1f 85be 42bd febb f747 a4bd cd7b 19be
00000280: 8e01 523d 1f36 d5bd 3085 c8bd 252f 073e
00000290: 1d6d 2f3d 4f28 1abd 3da3 e73d d0d1 c93d
000002a0: 5680 3f3e 2f61 abbd 24df 5c3e 98eb 253e
000002b0: 686e 083e 4c9e 7abd 0957 e33c 89e3 b93b
000002c0: 0880 0c3e 0d9f 25bc 5bf4 983d 7872 3e3e
000002d0: 9ca7 433e 4e38 a9bd ab1a b33d 0168 16be
000002e0: e9e9 e73d 2b01 f33d 5301 a03d 9cfd 00bd
000002f0: 8172 52be bd6f debd e88f 993d 43fa bbbd
00000300: 173c 99bd c2b3 d0bb 6df7 2bbe bf7d ec3d
00000310: d313 b43c bf03 883c 92a7 a83d 7397 343e
00000320: 9208 2a3e fe4a 51bd ce17 6cbb 4bad 37bd
00000330: ad14 85bd b5fb 89bd 3320 da3d 1b2e dc3d
00000340: 08a7 573d 1071 b4bd 00a5 053e 1144 ba3d
00000350: 03fd af3d 2ee7 323d 53c2 0e3b a95e 3ebc
00000360: 5ffc ee3d 94b2 df3d f8a4 91bd 3a97 a73d
00000370: 0501 10bd f77a b6bd 0f3b 413c e3a6 433e
00000380: 33a3 7dbc 82a8 9bbd 8704 a03d ed10 d53d
00000390: 23c9 8a3d 574a 0c3e 2a65 7a3c e185 0cbe
000003a0: c6ac 7fbd 1dec 26be 1e2e ea3d 6762 d43d
000003b0: 457e afbd 95c1 b8bc dc9f 74bd fa78 91bc
000003c0: a9bb 9a3c e9dd a53d ab40 603c 1315 efbd
000003d0: beb9 cabd 8c4f 3f3d 07bd 0b3d 67b6 fe3d
000003e0: 90e3 2fb8 57d0 d63d 680f 2e3d 55c8 013d
000003f0: 3f45 5f3c faa0 07bc 3528 a03c 7f8e dabd

network_body._body_endoder.seq_layers.2.bias f4 [128]
0.0 0.0 0.0 0.0 0.0 0.0 0.0 0.0
0.0 0.0 0.0 0.0 0.0 0.0 0.0 0.0
0.0 0.0 0.0 0.0 0.0 0.0 0.0 0.0
0.0 0.0 0.0 0.0 0.0 0.0 0.0 0.0
0.0 0.0 0.0 0.0 0.0 0.0 0.0 0.0
0.0 0.0 0.0 0.0 0.0 0.0 0.0 0.0
0.0 0.0 0.0 0.0 0.0 0.0 0.0 0.0
0.0 0.0 0.0 0.0 0.0 0.0 0.0 0.0
0.0 0.0 0.0 0.0 0.0 0.0 0.0 0.0
0.0 0.0 0.0 0.0 0.0 0.0 0.0 0.0
0.0 0.0 0.0 0.0 0.0 0.0 0.0 0.0
0.0 0.0 0.0 0.0 0.0 0.0 0.0 0.0
0.0 0.0 0.0 0.0 0.0 0.0 0.0 0.0
0.0 0.0 0.0 0.0 0.0 0.0 0.0 0.0
0.0 0.0 0.0 0.0 0.0 0.0 0.0 0.0
0.0 0.0 0.0 0.0 0.0 0.0 0.0 0.0
00000000: 0000 0000 0000 0000 0000 0000 0000 0000
00000010: 0000 0000 0000 0000 0000 0000 0000 0000
00000020: 0000 0000 0000 0000 0000 0000 0000 0000
00000030: 0000 0000 0000 0000 0000 0000 0000 0000
00000040: 0000 0000 0000 0000 0000 0000 0000 0000
00000050: 0000 0000 0000 0000 0000 0000 0000 0000
00000060: 0000 0000 0000 0000 0000 0000 0000 0000
00000070: 0000 0000 0000 0000 0000 0000 0000 0000
00000080: 0000 0000 0000 0000 0000 0000 0000 0000
00000090: 0000 0000 0000 0000 0000 0000 0000 0000
000000a0: 0000 0000 0000 0000 0000 0000 0000 0000
000000b0: 0000 0000 0000 0000 0000 0000 0000 0000
000000c0: 0000 0000 0000 0000 0000 0000 0000 0000
000000d0: 0000 0000 0000 0000 0000 0000 0000 0000
000000e0: 0000 0000 0000 0000 0000 0000 0000 0000
000000f0: 0000 0000 0000 0000 0000 0000 0000 0000
00000100: 0000 0000 0000 0000 0000 0000 0000 0000
00000110: 0000 0000 0000 0000 0000 0000 0000 0000
00000120: 0000 0000 0000 0000 0000 0000 0000 0000
00000130: 0000 0000 0000 0000 0000 0000 0000 0000
00000140: 0000 0000 0000 0000 0000 0000 0000 0000
00000150: 0000 0000 0000 0000 0000 0000 0000 0000
00000160: 0000 0000 0000 0000 0000 0000 0000 0000
00000170: 0000 0000 0000 0000 0000 0000 0000 0000
00000180: 0000 0000 0000 0000 0000 0000 0000 0000
00000190: 0000 0000 0000 0000 0000 0000 0000 0000
000001a0: 0000 0000 0000 0000 0000 0000 0000 0000
000001b0: 0000 0000 0000 0000 0000 0000 0000 0000
000001c0: 0000 0000 0000 0000 0000 0000 0000 0000
000001d0: 0000 0000 0000 0000 0000 0000 0000 0000
000001e0: 0000 0000 0000 0000 0000 0000 0000 0000
000001f0: 0000 0000 0000 0000 0000 0000 0000 0000

network_body._body_endoder.seq_layers.2.weight f4 [128, 128]
-0.047630806 -0.04364998 0.1378829 -0.017183954 0.07290455 -0.03738512 0.07012543 0.06862097
0.17642729 -0.16823865 0.033637136 0.064195804 -0.15408441 0.023398913 -0.12533186 0.048018374
-0.15813152 -0.0056045856 0.0036602905 0.010766937 -0.1665073 -0.0017579063 -0.05598474 0.07755542
0.06289982 -0.14395857 -0.12641154 0.08638943 -0.11042113 -0.061679218 -0.022041863 -0.009795992
0.05116812 -0.12699576 0.09284161 -0.019143285 -0.048537083 0.13390167 0.023347843 0.07212867
0.06351278 0.006865391 -0.024804898 -0.19956928 -0.06553354 0.07927699 0.06360138 -0.025940446
0.013103743 0.07249969 -0.0599807 -0.010549811 -0.065545216 -0.03987087 -0.02279865 0.1726796
0.07047254 -0.15321577 0.05538119 0.030856324 0.15372291 0.009409757 -0.03367532 -0.14460295
-0.024775758 -0.10866531 0.10504788 0.048223574 -0.00012831304 -0.18758698 -0.007817941 0.13691191
0.05968102 0.17908059 0.08131388 -0.025962891 -0.04735759 -0.02920727 -0.03784353 -0.104749255
0.044792328 -0.014753322 0.10408733 -0.08780034 0.17337273 0.0734763 -0.08551014 0.040465727
0.090222314 0.012068642 0.14441012 -0.21196781 -0.042582717 -0.028757814 -0.10652006 -0.04641716
-0.017693903 0.18030992 -0.17519729 -0.025219494 -0.06100029 0.011194176 -0.056656823 -0.12772909
-0.13085727 -0.028075164 0.09262101 -0.12693696 -0.006223609 0.012756842 0.16706139 0.0723688
-0.08556203 0.04190298 -0.083321154 -0.06689733 0.12164582 0.0040609497 -0.03804907 0.063888915
-0.021183815 0.08588988 0.026263945 0.06221996 0.011518196 -0.03453941 -0.03060935 0.011225451
0.10346614 0.03375074 -0.15429021 0.16450948 0.029562442 0.08403302 0.0041122045 -0.14979643
0.118780136 -0.027624696 -0.027066406 -0.018487653 -0.010838107 -0.07626645 0.05545707 0.023319134
-0.14030385 -0.10278101 0.019327514 -0.065965526 0.093603946 0.22297822 0.06657692 0.039587732
-0.17943898 0.05213402 -0.062567115 -0.010504737 0.010025219 -0.086063586 0.084261455 -0.006605634
0.059524592 -0.0054573403 -0.0002224405 -0.0038138812 -0.100759976 0.04082349 0.038663372 -0.07244007
-0.01463951 0.030196635 0.065276325 -0.0991626 -0.022006419 0.037023228 -0.039521337 -0.034343153
0.028271537 0.006362949 -0.015226148 -0.07327171 0.05088678 -0.07986133 0.09873376 -0.01540105
0.1416513 0.16577396 0.06598023 -0.07170833 0.052668177 -0.13820986 -0.08475051 0.0043290895
-0.10723436 0.21421482 -0.01318589 -0.106456794 0.1351129 0.07914222 0.101537764 -0.08867185
0.109377414 -0.04113237 0.0050440696 0.007656231 0.017736021 0.11387858 0.18762234 0.06879773
0.12254757 0.049289048 0.019446716 0.025158826 0.036712795 0.116985805 0.07776944 0.24428795
-0.022271592 -0.021641947 -0.06115223 0.065285265 -0.08747818 0.04242491 0.0401466 -0.023016125
0.14647426 0.05731491 0.058830895 0.08526868 0.094064124 0.1082455 0.08797143 -0.06876607
-0.12614405 -0.071078 -0.03558301 0.024679748 -0.052173868 0.038754515 -0.051569324 -0.009283539
0.1346834 -0.040307883 -0.027909776 -0.047761507 -0.08317579 -0.0035278515 0.023472492 0.12808983
0.017212177 0.12916853 0.084425375 -0.08307976 -0.10150908 -0.047254257 0.014095546 0.05457744
00000000: 8518 43bd 52ca 32bd 2d31 0d3e 5dc5 8cbc
00000010: fb4e 953d 2421 19bd ec9d 8f3d 2789 8c3d
00000020: 5ba9 343e c146 2cbe 18c7 093d 1779 833d
00000030: 4ec8 1dbe 14af bf3c ff56 00be eaae 443d
00000040: 3bed 21be aca6 b7bb 7ce1 6f3b cf67 303c
00000050: e480 2abe 8c69 e6ba 4150 65bd 60d5 9e3d
00000060: 9fd1 803d e069 13be 0772 01be f1ec b03d
00000070: 7924 e2bd 59a3 7cbd 2391 b4bc 5e7f 20bc
00000080: aa95 513d 2d0b 02be be23 be3d 61d2 9cbc
00000090: d2ce 46bd 851d 093e fa43 bf3c 32b8 933d
000000a0: fd12 823d 13f7 e03b a433 cbbc e45b 4cbe
000000b0: 7336 86bd f95b a23d 7141 823d 0f81 d4bc
000000c0: 15b1 563c b87a 943d 53ae 75bd 1dd9 2cbc
000000d0: 923c 86bd a34f 23bd 3cc4 babc ecd2 303e
000000e0: e853 903d 98e4 1cbe 63d7 623d 67c6 fc3c
000000f0: 8a69 1d3e 622b 1a3c 22ef 09bd cc12 14be
00000100: 88f6 cabc eb8b debd 5823 d73d 1586 453d
00000110: c58b 06b9 cd16 40be d216 00bc a332 0c3e
00000120: 1674 743d e760 373e e487 a63d 21b0 d4bc
00000130: 08fa 41bd 1644 efbc d101 1bbd c786 d6bd
00000140: 2978 373d ebb7 71bc bd2b d53d aad0 b3bd
00000150: 9f88 313e be7a 963d f11f afbd 64bf 253d
00000160: 7ac6 b83d 8ebb 453c 3fe0 133e 170e 59be
00000170: 376b 2ebd 8295 ebbc 3027 dabd ec1f 3ebd
00000180: cef2 90bc 2aa3 383e eb66 33be 1d99 cebc
00000190: 71db 79bd c767 373c fc10 68bd 6acb 02be
000001a0: 73ff 05be e3fd e5bc 16b0 bd3d c3fb 01be
000001b0: 6bef cbbb 1302 513c 2412 2b3e 1836 943d
000001c0: 253b afbd 76a2 2b3d 48a4 aabd 7801 89bd
000001d0: 7221 f93d b711 853b 57d9 1bbd 31d8 823d
000001e0: ae89 adbc 09e7 af3d 7c27 d73c 5bda 7e3d
000001f0: d1b6 3c3c 3279 0dbd 76c0 fabc f4ea 373c
00000200: 0ee6 d33d 373e 0a3d 41fe 1dbe 2c75 283e
00000210: ef2c f23c 8119 ac3d acbf 863b 3c64 19be
00000220: 0043 f33d 304d e2bc 5eba ddbc 6b73 97bc
00000230: 5192 31bc 9631 9cbd f426 633d c507 bf3c
00000240: d0ab 0fbe da7e d2bd bc54 9e3c ef18 87bd
00000250: 6db3 bf3d 6754 643e 7b59 883d bf26 223d
00000260: dabe 37be 7b8a 553d 3023 80bd 0f1c 2cbc
00000270: d140 243c 1b42 b0bd 4591 ac3d 1374 d8bb
00000280: 0fd0 733d 7dd3 b2bb eb3e 69b9 4ff2 79bb
00000290: 3f5b cebd 8836 273d 7c5d 1e3d 765b 94bd
000002a0: 8eda 6fbc ef5e f73c 98af 853d c315 cbbd
000002b0: ce46 b4bc aba5 173d 20e1 21bd 68ab 0cbd
000002c0: b699 e73c 4980 d03b 1877 79bc 7a0f 96bd
000002d0: a86e 503d 568e a3bd ed34 ca3d b054 7cbc
000002e0: 0a0d 113e a6c0 293e a520 873d d1db 92bd
000002f0: 96ba 573d e386 0dbe ad91 adbd 09db 8d3b
00000300: b09d dbbd 215b 5b3e a209 58bc 0506 dabd
00000310: 095b 0a3e 5115 a23d 08f3 cf3d 9699 b5bd
00000320: 4401 e03d 6a7a 28bd b948 a53b 1fe1 fa3b
00000330: 224b 913c 2c39 e93d 1220 403e d3e5 8c3d
00000340: 38fa fa3d 50e3 493d b84e 9f3c e219 ce3c
00000350: 2860 163d 4196 ef3d 9645 9f3d 9f26 7a3e
00000360: ea72 b6bc 744a b1bc c37a 7abd 48b4 853d
00000370: c327 b3bd bec5 2d3d c370 243d 508c bcbc
00000380: 59fd 153e 0ac3 6a3d aaf8 703d 58a1 ae3d
00000390: b1a4 c03d d1af dd3d 5d2a b43d 3ad5 8cbd
000003a0: e82b 01be 5891 91bd 7ebf 11bd 2f2d ca3c
000003b0: 44b4 55bd 0ebd 1e3d 5b3a 53bd fc19 18bc
000003c0: 72ea 093e e119 25bd 0ba3 e4bc 92a1 43bd
000003d0: 1258 aabd 8733 67bb 6249 c03c fb29 033e
000003e0: 8d00 8d3c c144 043e 36e7 ac3d b925 aabd
000003f0: fee3 cfbd ae8d 41bd 01f1 663c 988c 5f3d
