Assets/results/CubeJumper3/Agent.onnx (onnx, 112765 bytes, 5 tensors)

action_model._discrete_distribution.branches.0.weight f4 [1, 128]
000000 92 e1 1c ba 5a fe 91 ba 25 55 20 3b eb c1 2f b9
       -0.00059845403 -0.0011138425 0.0024464813 -0.0001676154
000010 3a 1a 7c 3b 18 96 18 bc 6a d4 a3 3b 0c 47 18 3c
       0.003846778 -0.009313129 0.004999687 0.009294283
000020 d9 a9 81 3b dc c2 02 bc 08 3d 0c bc e9 f6 a5 3b
       0.003957015 -0.007981028 -0.008559473 0.0050648344
000030 d0 d6 e5 3b 35 4a 21 3c ea fa 61 3b a6 3e 47 ba
       0.007014133 0.0098443525 0.0034481832 -0.0007600583
000040 9b 6e e8 bb 07 6e 0b bc f8 f6 46 3b 9f 24 95 bc
       -0.0070932633 -0.008510119 0.0030359607 -0.018205939
000050 4b 90 e8 3b f6 71 bb bc d1 a1 a1 3b ce ad 81 bc
       0.007097279 -0.02288149 0.00493262 -0.015829947
000060 4e d9 b5 bb 67 dd 1e 3c cb b3 7b 3a 3f 8e a4 bc
       -0.0055495864 0.009696341 0.00096016814 -0.02008736
000070 1b 47 09 3c ec 7b 28 3b 0e 0f 2a 37 66 08 9e 3c
       0.008378769 0.0025708629 1.0136295e-05 0.019291114
000080 f0 a6 63 bc 70 57 7c 3b b1 b0 26 bc 83 51 9e 3a
       -0.0138947815 0.0038504265 -0.010173962 0.0012078736
000090 82 a9 f8 3b 84 cb c8 3b f7 b1 9b bb b7 ae 20 bc
       0.0075885663 0.0061277766 -0.0047514397 -0.00980728
0000a0 62 3f b6 3b 93 d6 d2 b9 ab 15 b1 bb e4 6f ab bb
       0.005561755 -0.00040214192 -0.0054041944 -0.0052318443
0000b0 13 17 3a 3a a3 0e 4a bb 1d 7f ff ba 17 53 25 bc
       0.0007098775 -0.0030831478 -0.0019492839 -0.010090611
0000c0 0f df 90 3c 61 ad 14 3b 73 06 d2 bb fa 51 31 bb
       0.017684488 0.002268635 -0.00640946 -0.0027056918
0000d0 36 60 00 bb c3 8c 85 bc 7e 0c 92 3c ff 34 a7 bb
       -0.0019588596 -0.016302472 0.017828222 -0.005102753
0000e0 ea 6d d5 3c 42 8e d7 ba d3 e0 db 3a e0 54 44 bc
       0.026053388 -0.0016445594 0.0016775377 -0.011983126
0000f0 68 65 8d 3c 03 3c 20 bb da 73 d7 3b f3 71 a2 bb
       0.017260268 -0.0024449832 0.00657509 -0.0049574315
000100 2e ca 9c bb dd db 5d bc 4f ec 77 3b 9b 7a d6 3b
       -0.004784844 -0.013541189 0.003783006 0.0065453774
000110 f3 ce 26 3c 64 51 05 bc ef 57 18 bc 9a ee f7 bb
       0.0101811765 -0.008137081 -0.009298309 -0.0075662853
000120 c9 c5 0e bb a3 66 ad bb 0d 77 53 bc 8b 5a 26 3c
       -0.002178537 -0.0052917763 -0.012906802 0.010153423
000130 43 64 64 3c 93 2a 51 3b b2 c0 c7 ba bb 85 23 3b
       0.01393992 0.0031916245 -0.0015239923 0.0024951536
000140 9d 14 4f bb 34 1d 89 3c af 7d b8 bb e2 dc 7e 3b
       -0.003159798 0.016737558 -0.005630217 0.003888898
000150 e7 4f bf bc f3 98 9b 3b 87 dd 76 3a ef 11 07 3c
       -0.02335353 0.0047484576 0.00094171654 0.008244022
000160 6f 17 69 3c b2 fc b9 b9 08 9e ec bb b4 15 2f bc
       0.014226778 -0.00035474222 -0.007220987 -0.010686327
000170 33 2e b5 b8 d7 bd 18 3c e4 bd bd 3b c3 c0 65 bc
       -8.639358e-05 0.009322605 0.005790459 -0.014023009
000180 46 8f 1d bb aa 24 5a 3c f8 38 f9 bb 38 5a ec 3a
       -0.0024041696 0.013314405 -0.007605668 0.0018032258
000190 1b 16 80 bc 02 6c fa 3a 83 1f 2c bc e1 16 3c 3c
       -0.01563554 0.0019105675 -0.01050556 0.011480064
0001a0 26 8b 33 b9 14 65 17 3c 61 d6 12 3c 0d 57 69 3c
       -0.00017122607 0.0092404075 0.008962245 0.014241946
0001b0 32 8c 12 3b c1 eb 9b 3b c0 c7 51 bc de 54 ac ba
       0.0022361395 0.0047583287 -0.012803972 -0.0013147851
0001c0 5c 7c 82 3c 38 d7 e0 3a 03 ce 49 3c bf 02 0c b9
       0.01592844 0.0017153984 0.012317183 -0.00013352463
0001d0 ed 93 c8 bb b7 ca d6 3b 6f 19 e6 bb 9f b6 30 bb
       -0.0061211498 0.006554927 -0.007022075 -0.002696432
0001e0 60 33 20 bc a7 d7 00 3c 40 4e 62 bc 4d 7d e7 ba
       -0.009777874 0.0078639155 -0.013812602 -0.0017661244
0001f0 3a e7 a8 38 6c f6 a4 3b 13 72 7b bb df 75 55 bb
       8.0539336e-05 0.0050342586 -0.0038367554 -0.0032571477

network_body._body_endoder.seq_layers.0.bias f4 [128]
000000 00 00 00 00 00 00 00 00 00 00 00 00 00 00 00 00
       0.0 0.0 0.0 0.0
000010 00 00 00 00 00 00 00 00 00 00 00 00 00 00 00 00
       0.0 0.0 0.0 0.0
000020 00 00 00 00 00 00 00 00 00 00 00 00 00 00 00 00
       0.0 0.0 0.0 0.0
000030 00 00 00 00 00 00 00 00 00 00 00 00 00 00 00 00
       0.0 0.0 0.0 0.0
000040 00 00 00 00 00 00 00 00 00 00 00 00 00 00 00 00
       0.0 0.0 0.0 0.0
000050 00 00 00 00 00 00 00 00 00 00 00 00 00 00 00 00
       0.0 0.0 0.0 0.0
000060 00 00 00 00 00 00 00 00 00 00 00 00 00 00 00 00
       0.0 0.0 0.0 0.0
000070 00 00 00 00 00 00 00 00 00 00 00 00 00 00 00 00
       0.0 0.0 0.0 0.0
000080 00 00 00 00 00 00 00 00 00 00 00 00 00 00 00 00
       0.0 0.0 0.0 0.0
000090 00 00 00 00 00 00 00 00 00 00 00 00 00 00 00 00
       0.0 0.0 0.0 0.0
0000a0 00 00 00 00 00 00 00 00 00 00 00 00 00 00 00 00
       0.0 0.0 0.0 0.0
0000b0 00 00 00 00 00 00 00 00 00 00 00 00 00 00 00 00
       0.0 0.0 0.0 0.0
0000c0 00 00 00 00 00 00 00 00 00 00 00 00 00 00 00 00
       0.0 0.0 0.0 0.0
0000d0 00 00 00 00 00 00 00 00 00 00 00 00 00 00 00 00
       0.0 0.0 0.0 0.0
0000e0 00 00 00 00 00 00 00 00 00 00 00 00 00 00 00 00
       0.0 0.0 0.0 0.0
0000f0 00 00 00 00 00 00 00 00 00 00 00 00 00 00 00 00
       0.0 0.0 0.0 0.0
000100 00 00 00 00 00 00 00 00 00 00 00 00 00 00 00 00
       0.0 0.0 0.0 0.0
000110 00 00 00 00 00 00 00 00 00 00 00 00 00 00 00 00
       0.0 0.0 0.0 0.0
000120 00 00 00 00 00 00 00 00 00 00 00 00 00 00 00 00
       0.0 0.0 0.0 0.0
000130 00 00 00 00 00 00 00 00 00 00 00 00 00 00 00 00
       0.0 0.0 0.0 0.0
000140 00 00 00 00 00 00 00 00 00 00 00 00 00 00 00 00
       0.0 0.0 0.0 0.0
000150 00 00 00 00 00 00 00 00 00 00 00 00 00 00 00 00
       0.0 0.0 0.0 0.0
000160 00 00 00 00 00 00 00 00 00 00 00 00 00 00 00 00
       0.0 0.0 0.0 0.0
000170 00 00 00 00 00 00 00 00 00 00 00 00 00 00 00 00
       0.0 0.0 0.0 0.0
000180 00 00 00 00 00 00 00 00 00 00 00 00 00 00 00 00
       0.0 0.0 0.0 0.0
000190 00 00 00 00 00 00 00 00 00 00 00 00 00 00 00 00
       0.0 0.0 0.0 0.0
0001a0 00 00 00 00 00 00 00 00 00 00 00 00 00 00 00 00
       0.0 0.0 0.0 0.0
0001b0 00 00 00 00 00 00 00 00 00 00 00 00 00 00 00 00
       0.0 0.0 0.0 0.0
0001c0 00 00 00 00 00 00 00 00 00 00 00 00 00 00 00 00
       0.0 0.0 0.0 0.0
0001d0 00 00 00 00 00 00 00 00 00 00 00 00 00 00 00 00
       0.0 0.0 0.0 0.0
0001e0 00 00 00 00 00 00 00 00 00 00 00 00 00 00 00 00
       0.0 0.0 0.0 0.0
0001f0 00 00 00 00 00 00 00 00 00 00 00 00 00 00 00 00
       0.0 0.0 0.0 0.0

network_body._body_endoder.seq_layers.0.weight f4 [128, 85]
000000 75 66 28 3d 93 a7 22 3c e0 6e 6f 3d 68 9d 53 3d
       0.041113336 0.009927648 0.058455348 0.051663786
000010 f2 40 98 be ea cd ea 3b 14 ac 9c 3d 12 da 91 3b
       -0.2973705 0.00716566 0.07650009 0.004451045
000020 61 67 8f 3d 6d d9 04 bd b8 a3 ee 3d 4b c1 f1 3d
       0.0700214 -0.032433916 0.116523206 0.11804446
000030 67 b6 e2 3d d6 6e e7 3d f2 17 24 be 3c 59 3c bc
       0.11069947 0.11300437 -0.1602476 -0.0114958845
000040 0b ce 69 3d 7b 5f b0 bd 45 61 39 be b2 1b c4 bd
       0.057081264 -0.086119615 -0.18103512 -0.09575595
000050 9c de 56 bd 91 7f 80 bc 0b f9 24 bc f5 4c 83 3d
       -0.05245839 -0.015685828 -0.010069142 0.06411163
000060 d1 ce 5c 3e 57 19 75 3d 26 13 84 3d 09 0d 10 be
       0.21563269 0.05983862 0.06448965 -0.14067473
000070 24 aa f6 bd 49 89 9e 3d b6 fe 15 3e c7 d6 46 3e
       -0.120441705 0.07741029 0.14647946 0.19417869
000080 79 01 56 3e f4 cf 3c 3e e4 bf 04 be ba cb e8 3d
       0.20899 0.18438703 -0.12963825 0.11366983
000090 cd 16 cb 3c c4 7c 41 3e 86 b6 c6 3d e1 b8 c0 bd
       0.024791146 0.1889525 0.09702782 -0.09410263
0000a0 51 21 fb bc 1e 82 e6 3d 52 c0 a6 ba 1e 60 99 bd
       -0.030655535 0.11255287 -0.0012722111 -0.07489036
0000b0 54 a0 02 3d 6a 2d d0 bd d3 5f c1 3d 4b 2d 9e bd
       0.031891182 -0.10164912 0.09442105 -0.07723483
0000c0 39 8d 2a 3c d5 d1 a3 3d 4c d7 02 3e 17 f1 b3 3c
       0.010409647 0.07999007 0.12777442 0.021965547
0000d0 f5 a8 46 be 67 0a 81 3c 9a 0f 2f bb ad 57 9a bc
       -0.1940039 0.01575203 -0.002671218 -0.018840635
0000e0 34 72 c0 3d e9 78 a8 3d e1 67 cd 3d e5 64 92 bd
       0.093967825 0.08226187 0.10029579 -0.0714815
0000f0 a3 61 45 3d 34 46 f2 bd 19 3f b4 bb 3c bb 63 bd
       0.048188817 -0.118297964 -0.005500686 -0.055598482
000100 b5 a9 69 bc 10 93 c6 bb bc 38 20 be 68 cb 86 bd
       -0.014261653 -0.0060600117 -0.15646642 -0.065817654
000110 a6 b8 1d 3b c5 b6 e6 3d 7e 25 2c 3d bb 98 41 be
       0.0024066358 0.11265329 0.042027943 -0.18905918
000120 04 9f 33 3e 1c b7 35 3d d4 66 3f 3d 79 f8 f1 3d
       0.17541128 0.04436408 0.046728924 0.118149705
000130 fe 93 5a 3d 73 bf a9 3e a7 f2 90 bd d7 fc 85 bd
       0.053363793 0.33153877 -0.07077532 -0.06542366
000140 40 b9 a4 bd c1 46 e1 3d f5 af 2a bd 51 ae 1e be
       -0.08043146 0.10999823 -0.041671712 -0.15496184
000150 5f 43 a1 3c 04 17 56 be bb 07 35 bb 20 4a 19 3e
       0.019685445 -0.20907217 -0.0027623016 0.14969683
000160 3b d5 31 3e cc 94 a5 3d e1 3b 2d bd 54 cb f3 3d
       0.17366497 0.080850214 -0.042293433 0.11904016
000170 04 e4 c0 3d 27 3a 28 bd 4d 47 83 be d3 86 5c bd
       0.094184905 -0.041071083 -0.25640336 -0.053839516
000180 a2 20 85 3d 65 8a a6 bc 8a a6 29 3d 4a e9 0b 3e
       0.06500365 -0.020329664 0.04141859 0.13663211
000190 f9 15 69 bd 0c f2 ae 3d c1 1d 01 3e c9 60 23 be
       -0.05690572 0.085422605 0.12609006 -0.1595489
0001a0 b5 a3 36 bd 83 5b 61 3d 97 64 a6 bd 05 a9 bb 3b
       -0.044589717 0.055018913 -0.08124655 0.005726936
0001b0 52 eb 08 3d f1 65 bc 3d e5 01 d1 bc 0a bc 50 3e
       0.033427544 0.09199131 -0.025513599 0.20384231
0001c0 61 29 c5 3c 4f b3 8e 3e 48 93 53 3d f5 0b 57 bd
       0.024067583 0.27871177 0.05165413 -0.052501637
0001d0 18 88 81 bb aa 69 50 3d b8 cd 2e be bb bf f6 3c
       -0.003952991 0.05088202 -0.17070663 0.030120721
0001e0 ca 5d a3 3d 06 2b bf 3d ea 6b 2e 3e 7a 92 9d 3d
       0.07976873 0.09334378 0.17033353 0.07693954
0001f0 a8 30 f3 bd c9 09 bb 3a d3 e3 b7 bd cb 69 cb bc
       -0.11874515 0.0014269884 -0.08979001 -0.02483072
000200 59 9b 55 3d eb 94 cd 3d 2b 49 30 bd 7a df 05 bd
       0.052150104 0.100381695 -0.04303853 -0.032683827
000210 8d 20 bd bd c1 1b 00 3d fd 54 30 3c 90 d9 36 bd
       -0.09234724 0.03127647 0.01076245 -0.044641078
000220 29 75 1e 3d c9 14 42 3e 7f 6a 9a 3d be 70 11 be
       0.03868595 0.18953241 0.07539844 -0.14203164
000230 fa 80 36 3e 44 cf 6b be 27 bb cb 3b 9c 89 bf 3d
       0.17822638 -0.23028284 0.0062173787 0.09352419
000240 69 dd bf 3d 09 6a 67 3c 38 64 00 bd a3 55 b1 3d
       0.093684025 0.014124402 -0.031345576 0.08658912
000250 fe 4c 81 3c 98 5b 80 be d7 a2 1f 3d 51 b9 38 bd
       0.015783783 -0.2506988 0.038973656 -0.045098606
000260 1c 46 cc 3d 89 65 5e 3d 3f 21 07 be 83 9f c8 3c
       0.0997431 0.05429605 -0.13196276 0.024490124
000270 34 ed 0a be 11 08 08 3e 0b 16 fb 3c 89 f2 de bc
       -0.13567048 0.13284327 0.03065016 -0.02721526
000280 51 6b b8 3d 99 43 d1 bd 86 cf c7 3d 9b 63 a1 3d
       0.09004844 -0.10217971 0.09756379 0.07880326
000290 77 ff 12 3c a2 44 b1 3d a9 ca b0 3c 59 12 8c bd
       0.00897204 0.08655669 0.02158101 -0.06839437
0002a0 bb f5 03 be ed 5c 08 bd 0a c5 8a ba 9a 55 dc 3d
       -0.12886707 -0.033291746 -0.0010587287 0.10758515
0002b0 14 81 8d 3c 39 fe e1 3c 3a 50 ca bd cb 92 fd bd
       0.017273463 0.027587043 -0.09878583 -0.12381514
0002c0 09 f5 9f 3d 35 c1 df bd 44 1f 87 3d 80 f1 8c bc
       0.078104086 -0.10925523 0.0659776 -0.017205
0002d0 e5 35 5d bc c5 7a 49 3e 2b 24 18 be af d2 76 bd
       -0.013501619 0.19675739 -0.14857547 -0.060259517
0002e0 40 3f 42 be c5 c2 33 be 77 6d 92 bd d3 0a cc bd
       -0.1896944 -0.17554767 -0.07149785 -0.09963002
0002f0 a8 49 ad 3d 24 86 2c 3e 43 02 50 3e 62 74 16 bd
       0.084613144 0.16848046 0.20313363 -0.036732085
000300 db 07 3a 3e d8 17 2c bd 8f 16 bf bd c5 40 a7 bd
       0.18167059 -0.042014927 -0.093304746 -0.08166651
000310 d2 63 db bd 62 90 fb bd 67 b0 60 bd e4 0c 97 3a
       -0.107123986 -0.12283398 -0.05485573 0.0011524227
000320 f2 6f 87 bd 56 78 70 3e 48 24 7a 3d 09 3f d7 3d
       -0.06613149 0.23483405 0.061069757 0.1051007
000330 0b 74 9c 3c 2c 48 7d 3c 3d 5a 3c 3d c9 3f 2b bd
       0.019098302 0.015459102 0.045984495 -0.041808877
000340 82 e1 61 bd 5b fd d0 bd 84 23 96 bd 9a 05 4e bd
       -0.0551467 -0.10204574 -0.07330993 -0.05029831
000350 15 83 da 3c 39 a4 dc bc f4 d8 96 3d 8a 72 27 3e
       0.026673833 -0.026933776 0.07365599 0.16352287
000360 3f 89 d9 bd 21 1f 84 bd 28 60 b3 3d 78 b3 f9 3c
       -0.10621881 -0.0645125 0.08758575 0.030481085
000370 88 43 b2 bd 9e 8f 7c bc b6 de 0d 3d 98 52 2b 3e
       -0.08704287 -0.0154151 0.03463622 0.16730726
000380 14 9e 60 bd 8b 12 08 3d 4c 93 68 3d f6 34 ef bd
       -0.054838255 0.03322081 0.0567811 -0.11680023
000390 40 bf b7 bb 99 c8 e3 bc aa 07 e7 bd 60 cb 9a 3d
       -0.0056075156 -0.027805613 -0.11280759 0.07558322
0003a0 f3 27 ea 3d 67 de 42 bd 53 82 27 be a4 b4 f1 3c
       0.11433401 -0.04757538 -0.16358308 0.029505081
0003b0 24 42 35 3c 96 52 af bd 23 41 54 3e 34 15 b2 3d
       0.011063132 -0.08560674 0.20727973 0.086954504
0003c0 2d 5c 6d 3e 0b 9c 9c 3d 35 eb 4a be 79 49 50 3d
       0.23179694 0.0764695 -0.19816287 0.05085132
0003d0 f7 52 eb 3c 42 b9 c4 bd 6b e4 a3 bd ab c9 f7 3d
       0.028726084 -0.096056476 -0.08002552 0.12099012
0003e0 38 a5 a1 bd 43 af 51 bd 6a 51 6e bd f9 1e 61 bc
       -0.07892841 -0.051192533 -0.05818311 -0.013740295
0003f0 04 7e cc bd 46 4d 44 bd 2a da d7 3d 58 cc 48 be
       -0.09984973 -0.047925256 0.10539658 -0.19609201

network_body._body_endoder.seq_layers.2.bias f4 [128]
000000 00 00 00 00 00 00 00 00 00 00 00 00 00 00 00 00
       0.0 0.0 0.0 0.0
000010 00 00 00 00 00 00 00 00 00 00 00 00 00 00 00 00
       0.0 0.0 0.0 0.0
000020 00 00 00 00 00 00 00 00 00 00 00 00 00 00 00 00
       0.0 0.0 0.0 0.0
000030 00 00 00 00 00 00 00 00 00 00 00 00 00 00 00 00
       0.0 0.0 0.0 0.0
000040 00 00 00 00 00 00 00 00 00 00 00 00 00 00 00 00
       0.0 0.0 0.0 0.0
000050 00 00 00 00 00 00 00 00 00 00 00 00 00 00 00 00
       0.0 0.0 0.0 0.0
000060 00 00 00 00 00 00 00 00 00 00 00 00 00 00 00 00
       0.0 0.0 0.0 0.0
000070 00 00 00 00 00 00 00 00 00 00 00 00 00 00 00 00
       0.0 0.0 0.0 0.0
000080 00 00 00 00 00 00 00 00 00 00 00 00 00 00 00 00
       0.0 0.0 0.0 0.0
000090 00 00 00 00 00 00 00 00 00 00 00 00 00 00 00 00
       0.0 0.0 0.0 0.0
0000a0 00 00 00 00 00 00 00 00 00 00 00 00 00 00 00 00
       0.0 0.0 0.0 0.0
0000b0 00 00 00 00 00 00 00 00 00 00 00 00 00 00 00 00
       0.0 0.0 0.0 0.0
0000c0 00 00 00 00 00 00 00 00 00 00 00 00 00 00 00 00
       0.0 0.0 0.0 0.0
0000d0 00 00 00 00 00 00 00 00 00 00 00 00 00 00 00 00
       0.0 0.0 0.0 0.0
0000e0 00 00 00 00 00 00 00 00 00 00 00 00 00 00 00 00
       0.0 0.0 0.0 0.0
0000f0 00 00 00 00 00 00 00 00 00 00 00 00 00 00 00 00
       0.0 0.0 0.0 0.0
000100 00 00 00 00 00 00 00 00 00 00 00 00 00 00 00 00
       0.0 0.0 0.0 0.0
000110 00 00 00 00 00 00 00 00 00 00 00 00 00 00 00 00
       0.0 0.0 0.0 0.0
000120 00 00 00 00 00 00 00 00 00 00 00 00 00 00 00 00
       0.0 0.0 0.0 0.0
000130 00 00 00 00 00 00 00 00 00 00 00 00 00 00 00 00
       0.0 0.0 0.0 0.0
000140 00 00 00 00 00 00 00 00 00 00 00 00 00 00 00 00
       0.0 0.0 0.0 0.0
000150 00 00 00 00 00 00 00 00 00 00 00 00 00 00 00 00
       0.0 0.0 0.0 0.0
000160 00 00 00 00 00 00 00 00 00 00 00 00 00 00 00 00
       0.0 0.0 0.0 0.0
000170 00 00 00 00 00 00 00 00 00 00 00 00 00 00 00 00
       0.0 0.0 0.0 0.0
000180 00 00 00 00 00 00 00 00 00 00 00 00 00 00 00 00
       0.0 0.0 0.0 0.0
000190 00 00 00 00 00 00 00 00 00 00 00 00 00 00 00 00
       0.0 0.0 0.0 0.0
0001a0 00 00 00 00 00 00 00 00 00 00 00 00 00 00 00 00
       0.0 0.0 0.0 0.0
0001b0 00 00 00 00 00 00 00 00 00 00 00 00 00 00 00 00
       0.0 0.0 0.0 0.0
0001c0 00 00 00 00 00 00 00 00 00 00 00 00 00 00 00 00
       0.0 0.0 0.0 0.0
0001d0 00 00 00 00 00 00 00 00 00 00 00 00 00 00 00 00
       0.0 0.0 0.0 0.0
0001e0 00 00 00 00 00 00 00 00 00 00 00 00 00 00 00 00
       0.0 0.0 0.0 0.0
0001f0 00 00 00 00 00 00 00 00 00 00 00 00 00 00 00 00
       0.0 0.0 0.0 0.0

network_body._body_endoder.seq_layers.2.weight f4 [128, 128]
000000 c2 95 fc bc 86 c7 5c 3d 99 26 f2 3b 93 88 f9 bd
       -0.030833129 0.053901218 0.007389855 -0.121842526
000010 c4 ed 89 3d 69 0c d8 bd e1 16 89 bd 39 48 9b ba
       0.06734803 -0.10549242 -0.06693817 -0.0011847086
000020 c6 fd 09 3e 72 00 47 3d b5 b5 9f bb e4 5a 27 be
       0.13475713 0.04858441 -0.004873956 -0.16343266
000030 d5 1a a1 bc 73 8c a5 bd 18 5c cc 3b 48 9b da bc
       -0.019666115 -0.08083429 0.0062365644 -0.026685372
000040 72 c6 3e bb 1c 25 92 3c 88 a1 2b bd cc 10 e6 3d
       -0.0029109982 0.01783996 -0.041902095 0.112336725
000050 53 52 83 3d 92 93 22 bc 3e 34 20 bc 1e 31 83 3d
       0.064121865 -0.009922879 -0.0097780805 0.06405853
000060 6e b2 50 3d 88 93 e1 3d 11 68 52 be 4e 0a 4c 3d
       0.050951414 0.110144675 -0.2054751 0.049814515
000070 22 82 81 bd a2 4c 17 bd 4e c1 ed bd 0d 76 1f 3d
       -0.06323649 -0.036938317 -0.116091356 0.03893094
000080 9a dc 3d bd 76 1c 81 bd 36 c4 b8 3d 7b 51 04 bd
       -0.04635296 -0.063042566 0.09021799 -0.03230427
000090 2b 38 48 3d 78 13 31 be 19 32 15 be 95 ae 48 3e
       0.04888169 -0.17292583 -0.14569892 0.19597848
0000a0 c7 4c 4f 3d d8 f4 db 3d f9 3a b8 bd 31 d9 cf bc
       0.05061033 0.107400596 -0.08995623 -0.02537212
0000b0 bc f9 2c 3d 37 40 14 be a0 77 32 3d 72 c7 54 3d
       0.042230353 -0.14477621 0.043571115 0.05194802
0000c0 c3 b4 75 3c 97 67 8b bd 02 39 cf 3d 95 d9 35 3e
       0.01499671 -0.068068676 0.10118295 0.17758782
0000d0 0e 08 e4 bb 8f de eb bd 41 7a f9 3c 60 af 51 3e
       -0.006958968 -0.11517059 0.030453803 0.20477057
0000e0 f5 e9 f1 bc 63 6c c7 bd a3 f6 ba 3a 02 7f d8 3c
       -0.029530505 -0.0973747 0.0014264177 0.02642775
0000f0 88 ed db 3d d9 71 0c 3d 30 b3 08 3e 7a f1 89 3d
       0.10738665 0.03428826 0.13349605 0.06735511
000100 49 3c 40 3d 6f b0 0d bc ce 2d 6b 3d d5 77 12 be
       0.046932492 -0.008648022 0.05741673 -0.14303525
000110 36 ed 61 3d 20 e4 c8 bd 9a b8 d0 3d d2 52 e2 bd
       0.055157863 -0.098091364 0.1019146 -0.11050953
000120 7d 00 d5 3d ca e8 76 3b ac 48 dd bd d5 81 48 bd
       0.10400484 0.0037675374 -0.10804877 -0.048951942
000130 6f 71 86 3c 64 3a 90 bd cc 15 22 3d 89 02 1a 3d
       0.016411511 -0.07042387 0.03957157 0.037600074
000140 4d 62 c1 bc 44 de 6a 3c fa 7c 1b bd ee fa 0c bd
       -0.023606444 0.014335219 -0.037960984 -0.034418993
000150 cc 16 71 3d 07 89 1f bd b1 6b d1 3d 62 1a 4e bd
       0.05885963 -0.03894904 0.10225619 -0.05031813
000160 c4 10 26 3d 6a c2 35 3d b5 d8 91 bd 01 e8 8f bd
       0.040543333 0.04437486 -0.07121412 -0.07026673
000170 ce 6d 47 bc 71 00 30 3d 56 9c ab 3d 9f 9b 3e 3c
       -0.012172176 0.04296917 0.08379428 0.011633783
000180 5c 76 bd 3d d9 46 b8 bd 90 15 14 3d e2 7e 02 3d
       0.09251091 -0.08997888 0.036153376 0.031859286
000190 25 23 cf bd 55 d4 f7 bd ed d8 99 bd 26 bc bd bc
       -0.10114125 -0.12101046 -0.075120784 -0.023161005
0001a0 2b 53 a9 bd b0 72 54 bd 9d 9d 95 bd 7f 88 ea 3c
       -0.08267816 -0.051867187 -0.07305453 0.02862954
0001b0 a3 42 7e bd a2 f5 99 3d 0f 7d 01 3d 8e 67 78 bd
       -0.06207527 0.07517554 0.031613406 -0.060645632
0001c0 3a eb d8 3c 0e 82 56 3d 2c 93 26 3d ce cd c4 3d
       0.026479352 0.052370124 0.040667698 0.09609567
0001d0 2f bb e0 3d 94 9e cc bd c7 41 47 3d 13 4f 01 3d
       0.109732024 -0.09991184 0.048646715 0.03156955
0001e0 fb f1 b5 bc 96 03 9f bc 51 cf c0 bd c0 ae bf 3d
       -0.022210112 -0.01941089 -0.094145425 0.09359503
0001f0 0e 67 f4 3c 9c da e6 bd 46 c9 62 bc 96 8d b1 3d
       0.029834297 -0.11272165 -0.013841933 0.086695835
000200 cd bf 9f bd be 33 b7 3c 9f ab 5e 3e d5 b1 b1 3d
       -0.07800255 0.02236354 0.21745156 0.08676497
000210 d8 99 ad 3b 98 ce 11 be 33 f0 19 3d bb d0 0d be
       0.0052978806 -0.14238966 0.037582587 -0.13849156
000220 40 a4 56 be b6 75 bc bc 9f 83 07 bd d8 12 a8 3d
       -0.20961094 -0.023005348 -0.033084508 0.08206719
000230 c0 de 3f bd f6 b4 4d 3d 89 3b e7 3d 23 a8 14 be
       -0.04684329 0.050221406 0.11290652 -0.14517264
000240 f4 e3 09 3e a5 4b 7b bc 34 b8 b9 bd 51 99 0e 3d
       0.13465863 -0.015337859 -0.09068337 0.034814183
000250 22 e2 23 3d 71 59 5a 3d a2 8f 77 3d 1e 91 d0 3b
       0.04001058 0.053307954 0.060439713 0.0063649556
000260 70 bf 2d be 67 b5 60 bd fe b6 e6 bc 00 8e 41 3e
       -0.16967559 -0.0548605 -0.02816343 0.18901825
000270 b2 47 a7 bd 2e cf 66 3c 56 8f 40 be 1d b0 a5 bd
       -0.08167972 0.014087481 -0.18804678 -0.080902316
000280 f9 84 35 bd b3 0a 1a 3c b8 d5 e5 3d f5 2b 64 3d
       -0.044316266 0.009401965 0.11222404 0.055705983
000290 e6 d5 03 bd 22 cb f1 bd 3f aa 10 be a0 7f 89 bd
       -0.03218641 -0.11806323 -0.14127444 -0.06713796
0002a0 85 29 38 3c 0d 88 d8 3d 6d 46 66 3a a4 f6 04 be
       0.011240368 0.105728246 0.0008784298 -0.12984711
0002b0 5e 75 a2 3d dc b7 40 3d 32 3f 2a 3c c3 9d f0 bc
       0.07932542 0.047050342 0.0103910435 -0.029372102
0002c0 02 d6 50 3d c0 3b 25 bc 72 62 b3 bd 8e cb 84 3c
       0.050985344 -0.010085046 -0.08759011 0.016210344
0002d0 e3 a5 0d be 73 02 0c 3c 5c df 1b 3d 55 89 ae 3b
       -0.13832812 0.008545506 0.03805481 0.00532643
0002e0 10 f0 1d bd 04 8c 9e bc 1c dc e2 bd e4 9d ac 3d
       -0.03855902 -0.019353874 -0.11077139 0.08428553
0002f0 2a 84 d1 bc 1f ba d5 3c c0 0c 51 bb 41 8a fb bd
       -0.025575716 0.026089726 -0.0031898469 -0.12282229
000300 6b 2b ec 3d 9b 8e d2 bb 70 22 dc bc 57 d9 ca 3c
       0.11531719 -0.0064256913 -0.02687189 0.024761839
000310 e9 cf 1f 3e ce 8a c2 bd 0b 48 3d 3e aa 62 09 be
       0.15606655 -0.09499131 0.18484513 -0.13416544
000320 21 65 23 3c f2 43 d4 3d 4b 96 8e 3e c2 32 17 bd
       0.0099728415 0.10364522 0.2784904 -0.03691364
000330 f5 84 ff bd d4 ba 94 3d b6 4a 16 bc 69 03 39 bd
       -0.124765314 0.07262197 -0.009173086 -0.045169268
000340 fa 40 76 3d c5 20 f2 bd f2 44 fa 3c c0 f9 01 be
       0.06012056 -0.118226565 0.030550454 -0.12692928
000350 b4 19 84 bd 9d 99 63 bd ce e1 78 3d c9 cc 18 bd
       -0.06450215 -0.05556642 0.06076222 -0.037304673
000360 6a e2 d6 3d cb 8b 57 3d d1 77 9a 3d b9 07 cd 3c
       0.10492404 0.05262355 0.075423844 0.025028097
000370 b7 f7 66 bc 3d 07 e0 bc 39 ba 11 bc e1 28 cc bc
       -0.014097146 -0.027347201 -0.008894497 -0.024921836
000380 bf f3 b6 bd 46 f3 e3 bd a7 24 ff 3c 7e 4e e9 bc
       -0.0893321 -0.11130385 0.031145407 -0.02847981
000390 2c 7f c8 3d a4 7f 30 be 49 b9 bc bd 8c 45 8f bb
       0.09789881 -0.17236191 -0.09215028 -0.0043723043
0003a0 26 a4 9c 3e 68 80 9d bc 50 7d a1 3d 2a 2d c2 3c
       0.30593985 -0.019226268 0.078852296 0.023703177
0003b0 ed 67 e8 bd 35 41 35 be b7 a3 0a 3e a5 33 5a bc
       -0.11347947 -0.17700656 0.13539015 -0.013317977
0003c0 72 be a4 3d 58 ad 3e 3e ca 28 a8 3d 05 e4 25 be
       0.08044137 0.18620813 0.08210905 -0.16200264
0003d0 b0 c4 3e 3d 11 14 d8 bc 3f e2 c8 3d 2e 1d 09 3c
       0.046574295 -0.026376756 0.09808778 0.008368773
0003e0 7c 8c d8 3d f3 02 30 3d 9e 55 c5 bd 21 7e cd bc
       0.1057367 0.042971563 -0.09635471 -0.025084557
0003f0 a1 2d 0b 3d e0 52 e3 3d 00 33 e1 3d 9a fa 5b be
       0.033979062 0.110997915 0.109960556 -0.21482316
